WhiteBox Watermark/CV_Classification_Standard/model/ResNet_verify.pkl (torch, 193665 bytes, 2 tensors)

weight f4 [2, 24000]
0.0016498151 0.0072478675 -0.0016860294 -0.003951258 -0.004577309 -0.008303652 0.0032562027 0.0030221534
-0.014303425 -0.0012065186 -0.0034515234 -0.00557176 0.015428441 -0.004709487 -0.0012334987 -0.017318297
-0.025804346 0.011475316 -0.0066773077 0.0013101705 0.00044728254 0.009617976 -6.993361e-05 0.0051417802
-0.0067870743 -0.0053321635 -0.008508685 -0.009413949 -0.0015346447 0.0004917738 0.0010318134 -0.004586401
0.00501598 -0.0039943783 0.0012757056 0.0012756484 -0.021238424 0.04984007 0.007948539 -0.017371936
-0.0017322666 -0.013837567 -0.0009880255 -0.0067524477 -0.005257614 -0.019652506 -0.0025820576 -0.012436756
0.0017748575 -0.000746118 -3.4480965e-06 -0.0024902038 -0.007725691 -0.0045892093 0.0027002874 -0.0017045904
0.005232259 -0.0043989876 -0.009670922 0.006924662 0.003924527 -0.008062026 0.0045861183 -0.0021499093
0.012729191 0.019705996 -0.012507842 -0.025713295 0.02291533 -0.019617092 0.020959994 0.009956241
-0.0032329496 -0.000715604 -0.009521447 -0.010184069 0.0039797155 0.0046328166 -0.0022980457 -0.0037051558
-0.0032430082 -0.00041605867 -0.0010024088 0.03710762 -0.0032001087 0.0017258279 -0.0021196993 -0.00010526799
0.0075973906 -0.0023459955 -0.0022688012 0.00030798453 0.021754466 0.009194265 0.010531266 -0.0007046654
0.012248521 -0.028697683 -0.0053418763 -0.0607844 -0.01141613 0.0050902152 -0.016954828 -0.001397961
-0.00068361626 0.0021966847 -0.01055573 -0.008594469 -0.009121723 -0.006819462 -0.007681995 0.0022059942
-0.0027779643 0.00329585 0.0034623006 -0.0005418452 0.004953532 0.017372435 -0.0018633847 -0.010802037
-0.023349874 0.006180216 -0.012476882 -0.01849041 -0.00584644 0.0029010603 0.017096534 -0.00831496
-0.0003103883 -0.008565376 0.03368744 -0.002957963 -0.0014662993 -0.007019779 -0.0011701195 0.010432938
0.0024655205 -0.006992854 0.002846797 0.00256709 -0.0045179506 0.0010427159 0.0012190765 -0.007288292
0.0015390237 -0.0072291824 -0.028923431 -0.0046565617 0.07955337 0.0076315454 -0.010693886 -0.0007083422
0.008710295 -0.0063675293 -0.0054572746 -0.015049626 0.0042796116 0.01644726 -0.0025585801 -0.0029341697
-0.0031256173 -0.0010208499 -0.0006352225 0.008599959 -0.0005566464 -0.0017986894 -0.008069126 -0.00922025
0.000978213 6.434817e-05 -0.0016895334 -0.0014472096 -0.0031673613 -0.0097483015 -0.0064621717 0.007231248
-0.0015726354 -0.018182132 0.024017747 -0.002581933 0.023494968 0.027900333 -0.00896958 -0.00463624
0.0042374176 0.014684883 0.004439424 -0.0027092106 -0.0010636903 0.015525125 -0.0076186834 0.0018675812
0.023999646 -0.009386518 0.0021835144 0.0016797917 0.0065449052 -0.0044688517 0.010357112 -0.010226179
-0.009457246 -0.0014348674 -0.013054232 -0.0031184703 0.02890412 -0.0005038423 0.018242106 0.001849666
0.008435913 0.012678041 -0.010463443 -0.014216158 -0.020891614 -0.018747654 -0.00018126883 -0.0072254096
-0.0009811483 0.0029264488 -0.009168217 0.005772051 -0.008552436 0.0018185269 -0.0072893035 0.016916536
-0.008653668 0.021974873 0.008618266 0.00881959 0.0076152934 -0.01124677 -0.005779646 0.012881289
0.011612986 -0.0030188335 0.018925892 -0.0024133225 -0.0036649907 -3.6201644e-05 0.020779468 0.003983335
0.01915505 -0.011565621 -0.003432768 -0.001202948 0.001135411 -0.0077933962 0.0022183948 0.0020439436
0.0064024986 0.004833242 0.013655791 0.00682829 -0.0078085843 -0.010202012 -0.026959231 -0.011614609
00000000: 9c3e d83a 857f ed3b c2fd dcba 8e79 81bb
00000010: 40fd 95bb 0a0c 08bc 0466 553b 520f 463b
00000020: ea58 6abc 0c24 9eba f432 62bb 4f93 b6bb
00000030: 92c7 7c3c 0a52 9abb 59ad a1ba 1adf 8dbc
00000040: a363 d3bc f702 3c3c 51cd dabb 07ba ab3a
00000050: 3f81 ea39 b794 1d3c 52a9 92b8 617c a83b
00000060: 1b66 debb 6eb9 aebb 0368 0bbc f73c 1abc
00000070: 2226 c9ba 62ea 003a ea3d 873a 8549 96bb
00000080: 175d a43b 46e3 82bb 9435 a73a a833 a73a
00000090: 34fc adbc 1a25 4c3d 973a 023c 974f 8ebc
000000a0: 390d e3ba f6b6 62bc a280 81ba a343 ddbb
000000b0: 1048 acbb 4bfe a0bc bd37 29bb 89c3 4bbc
000000c0: 56a2 e83a 2297 43ba d965 67b6 b032 23bb
000000d0: cb27 fdbb 1461 96bb 4ef7 303b 906c dfba
000000e0: 5f73 ab3b 6225 90bb c972 1ebc 46e8 e23b
000000f0: 5299 803b 9716 04bc 2647 963b 7ee5 0cbb
00000100: 198e 503c 786e a13c b1ed 4cbc b0a4 d2bc
00000110: eeb8 bb3c 06b4 a0bc 4bb4 ab3c 801f 233c
00000120: e5df 53bb 5f97 3bba d8ff 1bbc 15db 26bc
00000130: 4668 823b e2ce 973b cf9a 16bb 33d2 72bb
00000140: a688 54bb 7322 dab9 4263 83ba 29fe 173d
00000150: eab8 51bb 2d35 e23a a7ea 0abb 52c3 dcb8
00000160: 88f3 f83b 46bf 19bb 2bb0 14bb fc78 a139
00000170: 6c36 b23c 8ba3 163c 558b 2c3c 4bb9 38ba
00000180: 05ae 483c 6717 ebbc e80a afbb 10f9 78bd
00000190: b80a 3bbc d2cb a63b dae4 8abc ca3b b7ba
000001a0: b634 33ba 41f6 0f3b f1f1 2cbc d1cf 0cbc
000001b0: 4773 15bc cb75 dfbb 3fb9 fbbb 7192 103b
000001c0: 820e 36bb 30ff 573b c4e7 623b 9e0a 0eba
000001d0: 3d51 a23b a350 8e3c d13c f4ba 07fb 30bc
000001e0: 3c48 bfbc 6983 ca3b d66b 4cbc 3379 97bc
000001f0: 7e93 bfbb b71f 3e3b 080e 8c3c 783b 08bc
00000200: 9dbb a2b9 ca55 0cbc d7fb 093d 62da 41bb
00000210: d730 c0ba 2d06 e6bb b25e 99ba eaee 2a3c
00000220: 9294 213b 5024 e5bb 5491 3a3b a03c 283b
00000230: 510b 94bb bdab 883a 6bc9 9f3a a0d2 eebb
00000240: 11b9 c93a c7e2 ecbb d5f0 ecbc 1296 98bb
00000250: e1ec a23d 0b12 fa3b 6935 2fbc 0ab0 39ba
00000260: a0b5 0e3c b5a6 d0bb f0d2 b2bb b592 76bc
00000270: fc3b 8c3b 67bc 863c daad 27bb 334b 40bb
00000280: 28d7 4cbb 0ace 85ba 0f85 26ba d8e6 0c3c
00000290: e8eb 11ba 00c2 ebba 5e34 04bc 8810 17bc
000002a0: 6237 803a a9f2 8638 5573 ddba 4cb0 bdba
000002b0: 8193 4fbb 57b7 1fbc a0c0 d3bb 1bf4 ec3b
000002c0: e320 ceba b2f2 94bc dec0 c43c a635 29bb
000002d0: 8578 c03c 3d8f e43c 25f5 12bc 9aeb 97bb
000002e0: 09da 8a3b dd98 703c 9678 913b 038d 31bb
000002f0: 866b 8bba 185d 7e3c 26a6 f9bb a0c9 f43a
00000300: e89a c43c e9c9 19bc 4b19 0f3b 752c dc3a
00000310: a576 d63b 726f 92bb e0b0 293c b48b 27bc
00000320: 91f2 1abc 2912 bcba 6be1 55bc 405f 4cbb
00000330: 55c8 ec3c 4914 04ba 7870 953c 7e70 f23a
00000340: c936 0a3c 8fb7 4f3c dc6e 2bbc e3ea 68bc
00000350: e424 abbc ae94 99bc fb12 3eb9 21c3 ecbb
00000360: e099 80ba aac9 3f3b 4a36 16bc 7923 bd3b
00000370: 841f 0cbc a35b ee3a 1cdb eebb 8c94 8a3c
00000380: 1dc8 0dbc a604 b43c a133 0d3c 0b80 103c
00000390: b689 f93b 5f44 38bc 2f63 bdbb 0b0c 533c
000003a0: 6544 3e3c 9fd7 45bb 790a 9b3c d528 1ebb
000003b0: 5730 70bb 38d7 17b8 b439 aa3c a386 823b
000003c0: 0deb 9c3c bb7d 3dbc 4af8 60bb 3dac 9dba
000003d0: 12d2 943a bf5f ffbb 7d62 113b aff3 053b
000003e0: 0dcc d13b 2c60 9e3b 8abc 5f3c d9bf df3b
000003f0: 27df ffbb 5726 27bc 9bd9 dcbc 334b 3ebc

bias f4 [2]
-0.00038274997 0.004790868
00000000: d5ab c8b9 b7fc 9c3b
