WhiteBox Watermark/CV_Classification_Standard/model/ResNet_verify.pkl (torch, 193665 bytes, 2 tensors)

weight f4 [2, 24000]
0	0xbbed32a0	-0.007238701
1	0x3ba09ab8	0.0049012564
2	0xbacdba3f	-0.0015695764
3	0xbb336a26	-0.0027376502
4	0xbbdd0681	-0.00674516
5	0xbaf0590d	-0.0018337086
6	0x3bf5c1ff	0.007499933
7	0x3cbf0b12	0.023320708
8	0xbbb273d7	-0.005445938
9	0x3d80a542	0.062815204
10	0x3d8d343b	0.06894728
11	0xbda5aed7	-0.08089989
12	0xbce37706	-0.027766716
13	0xbd03b834	-0.03215809
14	0xbd568104	-0.052369133
15	0x3d979578	0.07401556
16	0x3c2807af	0.010255738
17	0xb9ea8ab2	-0.00044735294
18	0xbad3a901	-0.001614839
19	0xbb92b9a0	-0.0044776946
20	0x39f4772d	0.000466281
21	0x3bfe799c	0.007765962
22	0xbc1505e1	-0.00909564
23	0xba535c36	-0.0008062752
24	0xbbcd23f3	-0.006260389
25	0xba2d2965	-0.00066055945
26	0xba77ff8b	-0.0009460381
27	0x3b1e9443	0.0024197258
28	0x3bce5252	0.0062964344
29	0x3ba43fe2	0.0050124982
30	0xbb45db01	-0.003019035
31	0xbb1b2c30	-0.002367746
32	0x3c92ba15	0.017910996
33	0xba4eae03	-0.0007884206
34	0x3c0defb7	0.0086631095
35	0xbce39365	-0.027780244
36	0x3d9e30ed	0.077241756
37	0xbad9f1a9	-0.0016627806
38	0xbcb61808	-0.022228256
39	0xbc4545bc	-0.012040552
40	0x3c88da96	0.016705792
41	0x3dcdbced	0.100458
42	0x3d21cf04	0.039504066
43	0x3c75bb38	0.01499825
44	0xbcb8fd7f	-0.022581814
45	0xba80cc7c	-0.0009826566
46	0xbcd4cace	-0.025975611
47	0xbbe25141	-0.006906659
48	0x3be67f50	0.00703422
49	0xbbc26e06	-0.005933526
50	0xb96abfe5	-0.00022387465
51	0xbb87b43d	-0.004141359
52	0x3ca3fb38	0.020017251
53	0xbc81e7da	-0.015857626
54	0x36480038	2.980245e-06
55	0x3c9c7a2d	0.019101227
56	0xbbc83407	-0.006109718
57	0x3b9d8187	0.0048067006
58	0x3b10bf87	0.0022086815
59	0xbba4574c	-0.0050152894
60	0x3c43a8e1	0.011942119
61	0x3b63dc8f	0.0034768914
62	0xbb1313d5	-0.002244224
63	0x3c827861	0.015926542
64	0xbd31eea7	-0.043440487
65	0xbc338a7e	-0.010958312
66	0xbc5a74e8	-0.013333537
67	0x3d102efa	0.03520105
68	0x3ca7a002	0.02046204
69	0xbd2c090c	-0.042000815
70	0x3cc2740c	0.023736976
71	0xbc4d63d4	-0.012536008
72	0x3c7a661b	0.015283133
73	0x3c120300	0.008911848
74	0x3b39a365	0.002832615
75	0x3c0dedb2	0.008662628
76	0x3ad8a831	0.0016529617
77	0x3a0846de	0.00051985483
78	0xbb14cf9b	-0.002270675
79	0xbbcfec97	-0.0063453424
80	0x3be8db2c	0.0071062054
81	0x3b0c7d0a	0.0021436834
82	0x3baaa0eb	0.005207171
83	0xbc141527	-0.009038246
84	0x3b71f3c5	0.003691898
85	0x3ba20a9a	0.0049451115
86	0x3c08374d	0.008313966
87	0xbb571feb	-0.003282542
88	0xbca61c37	-0.020277126
89	0x3a0162d3	0.00049356854
90	0x3baa2e81	0.005193532
91	0x3c8d26d0	0.017230421
92	0xbce7cf05	-0.028296957
93	0xbd9c3ff6	-0.07629387
94	0xbc3078c7	-0.010770983
95	0xbda1772d	-0.07884059
96	0xbd4ec2be	-0.05047869
97	0x3de86527	0.11347418
98	0x3bce1286	0.0062888293
99	0xbdb55a1d	-0.08855078
100	0xbc5852ff	-0.013203382
101	0x3c7bca39	0.015368038
102	0xbbb47cdb	-0.005508048
103	0x3d013fd6	0.03155502
104	0xbb3b5523	-0.002858468
105	0xbce6e037	-0.028183086
106	0x3b889442	0.0041680643
107	0x3c035ce5	0.008017753
108	0x3c240f43	0.010013404
109	0xbbb4a959	-0.005513352
110	0xba609a05	-0.00085678726
111	0x3ab258ae	0.0013606751
112	0x3b9a2b5d	0.0047048763
113	0x3b9dce6e	0.004815868
114	0x3cbed729	0.023295956
115	0x39c72b77	0.00037988622
116	0x3b124aaa	0.0022322335
117	0xbb094c46	-0.0020950004
118	0x3be426be	0.0069626262
119	0x3b8f6934	0.004376555
120	0x39d41b75	0.00040456248
121	0x3d310451	0.043217007
122	0xbcff882f	-0.031192867
123	0x3d90823c	0.0705609
124	0x3e25414f	0.16138195
125	0xbdc930d9	-0.0982377
126	0xbd13ed4a	-0.03611497
127	0xbd1af6d3	-0.037833046
128	0x3d8ee432	0.069771186
129	0x3d37e677	0.044897523
130	0x3c3a1bf2	0.011359202
131	0x3b3586ce	0.0027698758
132	0xbccbff17	-0.02490191
133	0xbc329bc3	-0.010901394
134	0xbc28a8f6	-0.01029419
135	0xbc2ea2c5	-0.0106589245
136	0x3b453f13	0.003009741
137	0x3b9c1542	0.0047632763
138	0xbbbd64b7	-0.0057798284
139	0x3aed3867	0.0018098474
140	0x3a922346	0.0011149428
141	0xb9ea3c86	-0.00044677051
142	0x39f26b72	0.0004623789
143	0xbb5a5e9a	-0.0033320547
144	0xba7257f2	-0.0009244672
145	0x3bdf83a7	0.006821114
146	0xbd7df5e0	-0.062002063
147	0x3bba4758	0.0056847744
148	0x3bfffb46	0.0078119365
149	0xbc82a446	-0.015947472
150	0x3d6a8f49	0.057265554
151	0x3b3e6bee	0.002905603
152	0x3ca9b833	0.020717716
153	0xbc08c13f	-0.008346855
154	0x3c98ca89	0.018651264
155	0xbd0d4582	-0.034490116
156	0x3ce56a47	0.028004779
157	0xbd045f82	-0.032317646
158	0xbd29f112	-0.04148967
159	0xbc697937	-0.014250091
160	0x3c8ade34	0.016951658
161	0xbc50c3d3	-0.012742001
162	0x3c9f314c	0.019432686
163	0x39df4ba1	0.00042590222
164	0x3bc5d598	0.0060374252
165	0x3b30a4b8	0.0026953649
166	0x3ba3e81a	0.005002034
167	0x3c19f6fc	0.009397265
168	0xbb86570c	-0.0040997323
169	0x3dfd0918	0.1235525
170	0xbb652e44	-0.0034970203
171	0xbc5b9a28	-0.013403453
172	0xbb2e5917	-0.0026603395
173	0xbe0eb3db	-0.13935797
174	0x3ba20493	0.004944393
175	0x3ba58172	0.0050508315
176	0xbc917f2d	-0.017760837
177	0xbc8a67e7	-0.016895248
178	0x3abd6d41	0.0014452116
179	0xbcafa291	-0.021439822
180	0xbc0b765d	-0.008512107
181	0x3cb8364d	0.02248683
182	0xbd3e4e6f	-0.04646152
183	0x3c37f752	0.011228399
184	0x3d42b079	0.04753158
185	0xbd945feb	-0.072448574
186	0xbc5d4f3b	-0.01350766
187	0xbc2264c5	-0.009911721
188	0xbb830fd2	-0.0039996887
189	0xbb9990fd	-0.0046864734
190	0xbb805e3a	-0.0039174827
191	0x3b0c5967	0.0021415593
192	0xbbb3f873	-0.005492264
193	0xbb42c2b3	-0.00297181
194	0x3b512c9a	0.0031917454
195	0x3c8cd90a	0.017193336
196	0xbc43df90	-0.011955157
197	0xbd95ada3	-0.07308509
198	0xbb1af0a6	-0.0023641973
199	0xbc774faf	-0.015094682
200	0x3c342e46	0.010997361
201	0x3c9d7131	0.019219013
202	0xbb9d1ea5	-0.004794913
203	0x3ba326e1	0.004979
204	0xbc3ae3d0	-0.011406854
205	0x3d2f6acd	0.042826463
206	0x3ccbef87	0.024894489
207	0xbc302f4d	-0.010753465
208	0xbd0ecb11	-0.034861628
209	0xbb86fe4f	-0.0041196714
210	0x3bd9509a	0.006631923
211	0x3ccdeda7	0.025137736
212	0xbca28a02	-0.019841198
213	0xbc3c9741	-0.011510671
214	0xbcc4bcb2	-0.024015758
215	0xbb674ad0	-0.0035292394
216	0x3b97deb5	0.004634703
217	0x3d0c6fdf	0.034286376
218	0xbba11a47	-0.0049164626
219	0x3c407fe3	0.011749241
220	0x3b967ef9	0.004592773
221	0x3cc35ed2	0.023848925
222	0x3b178418	0.0023119505
223	0x3b9b5a01	0.004740954
224	0xbc95ae09	-0.018271463
225	0x3c5b8eda	0.013400758
226	0xbcd66124	-0.026169367
227	0xbc81281f	-0.015766202
228	0x3c4bc9e9	0.012438276
229	0x3c4c4124	0.012466703
230	0xbbe82b6c	-0.0070852544
231	0xbc0aa412	-0.008461969
232	0x3cb3ea08	0.02196218
233	0x3c682857	0.014169774
234	0x3daf84a5	0.08570222
235	0x3d6503f3	0.05591197
236	0x3d1ccdcb	0.038282197
237	0xbc8dcad0	-0.017308623
238	0xbd7647a2	-0.060126908
239	0x3d89391b	0.06700345
240	0x3cd19ef7	0.025588496
241	0xbc38cdbf	-0.011279522
242	0xbd378a11	-0.044809405
243	0x3baeaa74	0.005330378
244	0xbaca8181	-0.0015449972
245	0xbba7c68f	-0.0051201056
246	0xbbba75b0	-0.005690299
247	0xb98f7c93	-0.000273679
248	0xbc36d8d3	-0.011160093
249	0xbb91d705	-0.004450681
250	0xbc8a34c8	-0.016870871
251	0x3bad2a79	0.005284604
252	0xb9342de7	-0.00017183238
253	0x3bfccbf3	0.0077147423
254	0x3b237687	0.0024942474
255	0xbcbc8cab	-0.023016294

bias f4 [2]
0	0x3b7115f4	0.0036786767
1	0x3a74be6f	0.0009336238
